assets/tf-predictor_15.tflite (tflite, 15696 bytes, 5 tensors)

StatefulPartitionedCall/sequential_1/dense_3/MatMul/ReadVariableOp/transpose i1 [64, 120] scale=0.6406896 zero_point=0
00000000: 0000 0000 0000 0000 0000 0000 0000 0000
00000010: 0000 0000 0000 0000 0000 0000 0000 0000
00000020: 0000 0000 0000 0000 0000 0000 0000 0000
00000030: 0000 0000 0000 0000 0000 0000 7d3b 2319
00000040: 1411 0f0e 0d0b 0a09 0808 0707 0606 0605
00000050: 0504 0404 0303 0304 0303 0303 0303 0302
00000060: 0303 0303 0202 0202 0203 0202 0202 0202
00000070: 0102 0202 0303 050c 0000 0000 0000 0000
00000080: 0000 0000 0000 0000 0000 0000 0000 0000
00000090: 0000 0000 0000 0000 0000 0000 0000 0000
000000a0: 0000 0000 0000 0000 0000 0000 0000 0000
000000b0: 0000 0000 7f3d 251a 1512 100f 0e0c 0b0a
000000c0: 0909 0808 0706 0606 0504 0404 0403 0304
000000d0: 0303 0403 0303 0302 0303 0303 0202 0202
000000e0: 0203 0202 0202 0202 0102 0202 0303 050c
000000f0: 0000 0000 0000 0000 0000 0000 0000 0000
0.0 0.0 0.0 0.0 0.0 0.0 0.0 0.0
0.0 0.0 0.0 0.0 0.0 0.0 0.0 0.0
0.0 0.0 0.0 0.0 0.0 0.0 0.0 0.0
0.0 0.0 0.0 0.0 0.0 0.0 0.0 0.0
0.0 0.0 0.0 0.0 0.0 0.0 0.0 0.0
0.0 0.0 0.0 0.0 0.0 0.0 0.0 0.0
0.0 0.0 0.0 0.0 0.0 0.0 0.0 0.0
0.0 0.0 0.0 0.0 80.086205 37.800686 22.424137 16.01724
12.813792 10.891724 9.610344 8.969654 8.328965 7.0475855 6.406896 5.7662067
5.125517 5.125517 4.484827 4.484827 3.8441377 3.8441377 3.8441377 3.203448
3.203448 2.5627584 2.5627584 2.5627584 1.9220688 1.9220688 1.9220688 2.5627584
1.9220688 1.9220688 1.9220688 1.9220688 1.9220688 1.9220688 1.9220688 1.2813792
1.9220688 1.9220688 1.9220688 1.9220688 1.2813792 1.2813792 1.2813792 1.2813792
1.2813792 1.9220688 1.2813792 1.2813792 1.2813792 1.2813792 1.2813792 1.2813792
0.6406896 1.2813792 1.2813792 1.2813792 1.9220688 1.9220688 3.203448 7.6882753
0.0 0.0 0.0 0.0 0.0 0.0 0.0 0.0
0.0 0.0 0.0 0.0 0.0 0.0 0.0 0.0
0.0 0.0 0.0 0.0 0.0 0.0 0.0 0.0
0.0 0.0 0.0 0.0 0.0 0.0 0.0 0.0
0.0 0.0 0.0 0.0 0.0 0.0 0.0 0.0
0.0 0.0 0.0 0.0 0.0 0.0 0.0 0.0
0.0 0.0 0.0 0.0 0.0 0.0 0.0 0.0
0.0 0.0 0.0 0.0 81.367584 39.082066 23.705515 16.65793
13.454482 11.5324135 10.251034 9.610344 8.969654 7.6882753 7.0475855 6.406896
5.7662067 5.7662067 5.125517 5.125517 4.484827 3.8441377 3.8441377 3.8441377
3.203448 2.5627584 2.5627584 2.5627584 2.5627584 1.9220688 1.9220688 2.5627584
1.9220688 1.9220688 2.5627584 1.9220688 1.9220688 1.9220688 1.9220688 1.2813792
1.9220688 1.9220688 1.9220688 1.9220688 1.2813792 1.2813792 1.2813792 1.2813792
1.2813792 1.9220688 1.2813792 1.2813792 1.2813792 1.2813792 1.2813792 1.2813792
0.6406896 1.2813792 1.2813792 1.2813792 1.9220688 1.9220688 3.203448 7.6882753
0.0 0.0 0.0 0.0 0.0 0.0 0.0 0.0
0.0 0.0 0.0 0.0 0.0 0.0 0.0 0.0

StatefulPartitionedCall/sequential_1/dense_3/MatMul_bias f4 [64]
00000000: 61e7 e63c 8b2c ef3c dc42 f43c 0224 e0bb
00000010: 5348 ea3c 1a94 e53c a168 0a3d e22e 063d
00000020: 792e 013d 1541 0a3d fb4c e83c 5d07 e93c
00000030: 662d ed3c 1b3e f13c 0a9d fb3c ea86 f63c
00000040: 265e fa3c 5b68 063d 188e ff3c 39cc ed3c
00000050: 6a3c b23a c111 ec3c 5ccc 0a3d 79a9 ef3c
00000060: 0495 f33c bdd8 fc3c c32f ec3c bf78 df3c
00000070: dd81 f23c 3687 e83c 7c0a f73c afa6 e73c
00000080: 27ac e53c 4314 ed3c d0f0 ef3c 4155 093d
00000090: 8340 ea3c 49d6 013d 014a fe3c 6120 2bbc
000000a0: ecd8 f63c f7fe 053d 3663 0e3d dc3e 013d
000000b0: 3c3f ff3c 6fb1 0b3d 94d5 e53c 88b4 f53c
000000c0: 6ab3 e93c bd59 043d 8d77 fa3c bf07 003d
000000d0: 5e5b 063d bd40 073d 0f00 dd3c 161f 093d
000000e0: 358c ce3c 3996 ee3c de45 f83c 8821 983c
000000f0: 98eb f23c 70d0 f13c dab7 ef3c f9dc d83c
0.028186502 0.029196044 0.029817037 -0.00684023 0.02859894 0.028024722 0.03379119 0.032759555
0.03153846 0.033753473 0.02835702 0.028445894 0.028952312 0.02944856 0.03071453 0.030093629
0.030562472 0.032814365 0.031195685 0.029028045 0.0013598327 0.02881706 0.0338863 0.029255616
0.029734142 0.030865068 0.028831368 0.027279256 0.02960294 0.028384786 0.030156367 0.028277723
0.02803619 0.028940326 0.029289633 0.03352857 0.028595215 0.0316985 0.031041147 -0.010444731
0.030132733 0.032713857 0.034762584 0.031554088 0.031158082 0.03410476 0.028055944 0.02999331
0.028527934 0.032312144 0.030574584 0.031257387 0.03280198 0.033020724 0.026977567 0.03347691
0.02521334 0.029124366 0.030306753 0.018570676 0.029653355 0.029518336 0.029262472 0.026472555

StatefulPartitionedCall/sequential_1/dense_4/MatMul/ReadVariableOp/transpose i1 [64, 64] scale=0.03930257 zero_point=0
00000000: 7177 756f 726e 7473 7572 726e 7776 7475
00000010: 7678 7272 706f 7c75 7a75 746f 7573 7975
00000020: 6f72 6d66 7376 6c6d 6d6f 7279 7472 7673
00000030: 7775 6e74 7273 7570 766f 7870 7370 7375
00000040: 7175 766c 706c 7373 7374 7070 7675 7572
00000050: 7674 7372 7171 7874 7a75 746d 7270 7775
00000060: 6e73 6d67 7675 6c6d 696f 7176 7471 7071
00000070: 7773 6b73 7273 7273 736e 736f 736f 7473
00000080: 7076 7470 726d 7371 7574 736f 7977 7574
00000090: 7575 7272 7170 7b73 7a75 736d 7377 7673
000000a0: 6d74 6b67 7475 6b70 6c73 7375 7472 7274
000000b0: 7577 7073 7672 7473 716f 766e 7171 7573
000000c0: 7273 786f 7170 7472 7672 736e 777a 7770
000000d0: 7776 7673 7372 7d75 7873 7670 7575 7974
000000e0: 6e72 6d68 7475 6e6f 6971 7179 7373 7373
000000f0: 7575 6f75 7571 7372 7670 796f 7474 7474
4.4411902 4.677006 4.5984006 4.362585 4.480493 4.3232827 4.559098 4.5197954
4.5984006 4.480493 4.480493 4.3232827 4.677006 4.637703 4.559098 4.5984006
4.637703 4.716308 4.480493 4.480493 4.401888 4.362585 4.8735185 4.5984006
4.7949133 4.5984006 4.559098 4.362585 4.5984006 4.5197954 4.755611 4.5984006
4.362585 4.480493 4.28398 4.008862 4.5197954 4.637703 4.2446775 4.28398
4.28398 4.362585 4.480493 4.755611 4.559098 4.480493 4.637703 4.5197954
4.677006 4.5984006 4.3232827 4.559098 4.480493 4.5197954 4.5984006 4.401888
4.637703 4.362585 4.716308 4.401888 4.5197954 4.401888 4.5197954 4.5984006
4.4411902 4.5984006 4.637703 4.2446775 4.401888 4.2446775 4.5197954 4.5197954
4.5197954 4.559098 4.401888 4.401888 4.637703 4.5984006 4.5984006 4.480493
4.637703 4.559098 4.5197954 4.480493 4.4411902 4.4411902 4.716308 4.559098
4.7949133 4.5984006 4.559098 4.28398 4.480493 4.401888 4.677006 4.5984006
4.3232827 4.5197954 4.28398 4.0481644 4.637703 4.5984006 4.2446775 4.28398
4.1267695 4.362585 4.4411902 4.637703 4.559098 4.4411902 4.401888 4.4411902
4.677006 4.5197954 4.2053747 4.5197954 4.480493 4.5197954 4.480493 4.5197954
4.5197954 4.3232827 4.5197954 4.362585 4.5197954 4.362585 4.559098 4.5197954
4.401888 4.637703 4.559098 4.401888 4.480493 4.28398 4.5197954 4.4411902
4.5984006 4.559098 4.5197954 4.362585 4.755611 4.677006 4.5984006 4.559098
4.5984006 4.5984006 4.480493 4.480493 4.4411902 4.401888 4.834216 4.5197954
4.7949133 4.5984006 4.5197954 4.28398 4.5197954 4.677006 4.637703 4.5197954
4.28398 4.559098 4.2053747 4.0481644 4.559098 4.5984006 4.2053747 4.401888
4.2446775 4.5197954 4.5197954 4.5984006 4.559098 4.480493 4.480493 4.559098
4.5984006 4.677006 4.401888 4.5197954 4.637703 4.480493 4.559098 4.5197954
4.4411902 4.362585 4.637703 4.3232827 4.4411902 4.4411902 4.5984006 4.5197954
4.480493 4.5197954 4.716308 4.362585 4.4411902 4.401888 4.559098 4.480493
4.637703 4.480493 4.5197954 4.3232827 4.677006 4.7949133 4.677006 4.401888
4.677006 4.637703 4.637703 4.5197954 4.5197954 4.480493 4.9128213 4.5984006
4.716308 4.5197954 4.637703 4.401888 4.5984006 4.5984006 4.755611 4.559098
4.3232827 4.480493 4.28398 4.087467 4.559098 4.5984006 4.3232827 4.362585
4.1267695 4.4411902 4.4411902 4.755611 4.5197954 4.5197954 4.5197954 4.5197954
4.5984006 4.5984006 4.362585 4.5984006 4.5984006 4.4411902 4.5197954 4.480493
4.637703 4.401888 4.755611 4.362585 4.559098 4.559098 4.559098 4.559098

StatefulPartitionedCall/sequential_1/dense_4/MatMul_bias f4 [64]
00000000: 72c1 173f 2589 103f 3907 183f a613 1b3f
00000010: ac02 0c3f aebc 133f 67d5 1b3f 331f 143f
00000020: a2de 153f f13b 143f aedd 173f 6664 173f
00000030: bc24 0f3f 0425 1a3f 7b96 143f 8d0b 173f
00000040: d334 15be ace4 093f 36d0 183f e48b 0b3f
00000050: 11a6 183f 7398 de3e 928a 0e3f 80ac 0c3f
00000060: c8cb 113f a991 133f e7db 163f c0d4 113f
00000070: 01c0 103f d81a 183f 3342 1b3f 8020 193f
00000080: 765a 1d3f 1fcd 163f ac41 1c3f 648c 163f
00000090: 6334 133f a08c 143f 0624 1b3f 55b0 183f
000000a0: 0d4d 1b3f 5253 103f 9859 103f cbe6 113f
000000b0: 8c98 153f bb3e 1a3f 7571 163f 5147 1a3f
000000c0: 784f 1a3f ae05 1c3f dc8d 143f 8353 1a3f
000000d0: 40ef 133f e6a0 153f 2fcc 133f 0976 193f
000000e0: df95 143f de6f 1c3f 9e87 193f 2f24 1d3f
000000f0: 6691 1b3f 6563 153f 8c3d 1a3f 39b9 1a3f
0.5927955 0.56459266 0.5938602 0.60576856 0.54691577 0.5770978 0.608725 0.57860106
0.58542836 0.57903963 0.5932263 0.5913757 0.5591543 0.6021273 0.58042115 0.59002
-0.14570932 0.5386455 0.59692705 0.5451033 0.596284 0.43475685 0.5568019 0.54950714
0.5695157 0.57644135 0.58929294 0.56965256 0.56542975 0.5941596 0.60647887 0.59815216
0.6146616 0.5890674 0.6103771 0.5880797 0.5750181 0.58027077 0.6060184 0.5964406
0.60664445 0.56377137 0.5638671 0.5699279 0.58435893 0.6025197 0.5876687 0.6026507
0.6027751 0.60946167 0.5802896 0.6028368 0.5778694 0.58448637 0.57733434 0.5994573
0.58041185 0.61108196 0.5997256 0.61383337 0.60768735 0.5835479 0.60250163 0.6043888

StatefulPartitionedCall/sequential_1/dense_5/MatMul/ReadVariableOp/transpose f4 [1, 64]
00000000: 99d7 9240 60af 9440 3146 9340 bb73 9240
00000010: 523f 9640 d161 9240 e362 9240 ead2 9340
00000020: 0a95 9340 96f7 9340 c25a 9240 48c7 9240
00000030: 7721 9540 f7d9 9240 feb2 9340 8d94 9240
00000040: 0000 0080 c54b 9740 c395 9240 56bc 9640
00000050: 810d 9340 c1d9 443f 0c7a 9540 8bec 9540
00000060: c596 9440 0db4 9340 53c4 9240 ed96 9440
00000070: e541 9540 76d0 9240 ceb4 9240 93fa 9240
00000080: bf37 9240 8197 9340 ad94 9240 ba63 9340
00000090: c14c 9440 1d7c 9340 aec2 9240 0c30 9340
000000a0: ab59 9240 b725 9540 ffbc 9440 c97f 9440
000000b0: b6a0 9340 6070 9240 eeaf 9340 476e 9240
000000c0: a48c 9240 c66b 9240 c7f9 9340 0e88 9240
000000d0: f2da 9340 92ea 9240 2ee4 9240 2a94 9240
000000e0: 8f96 9340 ac5b 9240 23c7 9240 e17e 9240
000000f0: dbde 9240 cd80 9340 26a1 9240 b7bd 9240
4.588818 4.646408 4.6023183 4.5766273 4.6952295 4.5744405 4.574571 4.6194963
4.6119432 4.623973 4.573579 4.5868263 4.660335 4.589107 4.6155996 4.5806336
-0.0 4.727999 4.5807815 4.71049 4.5953984 0.76894766 4.6711483 4.685125
4.6434045 4.615729 4.5864654 4.6434236 4.664294 4.587947 4.584571 4.5930877
4.569305 4.612244 4.580649 4.6059237 4.6343694 4.6089005 4.5862646 4.599615
4.573446 4.660854 4.648071 4.640599 4.613368 4.5762177 4.615226 4.5759616
4.579668 4.575656 4.6242404 4.579108 4.6204767 4.591134 4.590354 4.5805864
4.6121287 4.5736904 4.5868087 4.577988 4.589704 4.6094728 4.5821714 4.5856586
